archive/best_model.pth (torch, 135522 bytes, 13 tensors)

model.0.weight f4 [128, 182]
0.3870799 0.1558184 -0.08639645 -0.1126258 0.022753159 -0.04023856 0.11447982 0.057193734
-0.041232247 0.28178093 0.102691665 -0.19077972 -0.1411498 -0.06045246 0.17676333 -0.08241708
-0.033033535 0.0626913 0.12444676 -0.10085792 0.19926953 0.01649668 -0.058439013 -0.087381534
0.018623827 0.004863716 0.15523413 -0.12929352 0.036926486 -0.012407074 0.18963104 -0.020318573
0.0948903 0.04465211 -0.067077115 0.07362654 -0.060107667 -0.07696516 -0.036930174 -0.16990262
-0.13757005 0.086183526 0.09692338 0.18623596 -0.19939514 0.08725365 0.15140998 -0.028570183
-0.11834296 -0.054943345 0.12596332 -0.11616765 -0.139438 0.05366767 -0.1287006 0.10963689
-0.048748884 -0.014615612 -0.10015427 0.07985348 -0.19739965 0.07380405 0.35704222 -0.100289896
0.081017755 0.03872373 0.01233152 -0.17074928 0.01862839 0.017720085 0.11364096 0.23894267
0.05041601 -0.17449547 0.08524493 0.16254856 -0.11266411 0.20509644 -0.034610856 -0.1777472
-0.17292182 0.21961072 0.13749835 0.03743982 0.03454347 0.036760896 -0.023526022 -0.011000194
0.044015907 0.15726471 -0.19579838 0.09536491 0.07911091 0.16226844 0.12055772 -0.1074061
-0.01681346 -0.12179401 -0.08913693 0.15576975 0.07942173 -0.0038274426 0.23429728 -0.008304805
-0.13074233 0.06431257 -0.0822638 -0.13157026 -0.042571608 0.1705831 -0.040853687 0.028098188
0.053075027 0.13374174 -0.1377279 -0.014051696 0.08316847 -0.078914955 -0.016072009 0.062355816
0.2932417 -0.12428635 0.11786751 -0.12706621 -0.24062648 0.04846845 0.11746818 0.07750471
-0.24343349 -0.016455151 0.015940953 -0.17657864 -0.20407753 -0.056384444 -0.05287917 -0.28166565
-0.36452332 0.034277465 0.24275549 0.13942705 -0.30203295 0.11361239 -0.06978938 -0.2751201
0.09240253 0.09257888 -0.11510591 0.03355354 -0.07300766 -0.0068858154 0.115943186 0.081567444
0.12159424 0.0027463906 0.078729175 -0.13576181 0.01760561 0.12757286 -0.03791261 0.1776208
0.08379459 0.09064132 -0.23948973 -0.060018938 -0.06012541 0.09696283 -0.09790208 0.1336733
-0.12836061 0.05115885 0.07572247 -0.049483333 0.23830254 -0.04054988 0.17476486 -0.22037591
0.096829966 -0.0067313053 0.119268276 0.16133137 -0.25145987 -0.14851086 0.1168308 0.16319855
-0.12779866 -0.12553723 -0.14389768 0.18275733 0.19735222 0.08912667 -0.043013364 -0.08439895
-0.024020446 -0.09995626 0.16934119 -0.078312114 -0.028749943 0.30386624 0.09452801 0.08820147
-0.105055325 -0.0167117 0.1756025 -0.41722277 -0.012487534 -0.13501881 0.12756751 -0.056185376
-0.12917756 -0.05940374 -0.005101574 -0.026960295 0.17805059 0.19339019 -0.036510773 -0.21786769
0.07721041 0.32209122 0.03003621 0.00010706067 0.058879882 -0.114931166 -0.069474146 -0.040410433
-0.16166799 -0.11961219 -0.021567391 -0.07304779 0.01653668 -0.019061355 -0.12928861 0.039120708
0.1715634 0.17870986 -0.18961932 -0.023790408 -0.073351055 0.10957808 -0.111312956 -0.20823205
-0.23812108 -0.34878263 -0.087420434 0.01189501 0.07297969 -0.10793765 -0.0937323 0.13393484
0.078678496 -0.032714084 0.05105417 0.27882072 -0.02615961 0.18953726 0.069113925 -0.081361964
00000000: 562f c63e dc8e 1f3e 9ff0 b0bd 5ba8 e6bd
00000010: d564 ba3c 30d1 24bd 6574 ea3d fa43 6a3d
00000020: 25e3 28bd 9745 903e 0250 d23d c25b 43be
00000030: 9389 10be 009d 77bd 7201 353e 49ca a8bd
00000040: 2c4e 07bd 4c64 803d f1dd fe3d 998e cebd
00000050: 500d 4c3e 0c24 873c bf5d 6fbd 17f5 b2bd
00000060: ff90 983c cf5f 9f3b b2f5 1e3e 8565 04be
00000070: 3a40 173d 0a47 4bbc a42e 423e 2373 a6bc
00000080: d855 c23d 22e5 363d ba5f 89bd 83c9 963d
00000090: 7533 76bd e99f 9dbd 1844 17bd f4fa 2dbe
000000a0: 2adf 0cbe fd80 b03d c47f c63d a4b4 3e3e
000000b0: 3d2e 4cbe 0bb2 b23d 380b 1b3e 040c eabc
000000c0: cb5d f2bd 460c 61bd 87fc 003e 4ee9 edbd
000000d0: d6c8 0ebe a1d2 5b3d 17ca 03be 4e89 e03d
000000e0: e9ac 47bd 5276 6fbc af1d cdbd 398a a33d
000000f0: 2223 4abe 9426 973d 3dce b63e ca64 cdbd
00000100: a3ec a53d c69c 1e3d 250a 4a3c e6d8 2ebe
00000110: 919a 983c b629 913c 97bc e83d 63ad 743e
00000120: 0581 4e3d f1ae 32be e594 ae3d 2173 263e
00000130: 71bc e6bd cd04 523e 1dc4 0dbd 5d03 36be
00000140: 6b12 31be a2e1 603e 5ecc 0c3e 7f5a 193d
00000150: 747d 0d3d 9892 163d a5b9 c0bc 283a 34bc
00000160: 064a 343d 000a 213e 5f7f 48be ae4e c33d
00000170: e704 a23d b329 263e f7e6 f63d bbf7 dbbd
00000180: 62bc 89bc 236f f9bd 6c8d b6bd 1b82 1f3e
00000190: dca7 a23d d5d5 7abb a0eb 6f3e e010 08bc
000001a0: 51e1 05be 4fb6 833d ec79 a8bd 5bba 06be
000001b0: 915f 2ebd 56ad 2e3e 3256 27bd 2c2e e63c
000001c0: 3365 593d 98f3 083e 8b08 0dbe 1639 66bc
000001d0: 3b54 aa3d 2a9e a1bd 72a9 83bc d068 7f3d
000001e0: c723 963e d889 febd 8564 f13d a51d 02be
000001f0: ca66 76be da86 463d 2893 f03d caba 9e3d
00000200: a146 79be f4cc 86bc 9a96 823c 08d1 34be
00000210: b3f9 50be 60f3 66bd d497 58bd 7b36 90be
00000220: cda2 babe 8766 0c3d e594 783e f7c5 0e3e
00000230: 10a4 9abe 9dad e83d bced 8ebd 8bdc 8cbe
00000240: 8a3d bd3d ff99 bd3d a6bc ebbd 706f 093d
00000250: 0a85 95bd 68a2 e1bb 9f73 ed3d d50c a73d
00000260: 6706 f93d cafc 333b c33c a13d 2505 0bbe
00000270: a439 903c 76a2 023e 414a 1bbd 3ae2 353e
00000280: 7f9c ab3d 28a2 b93d cc3c 75be 6bd6 75bd
00000290: 1046 76bd 7394 c63d e380 c8bd a7e1 083e
000002a0: f770 03be f18b 513d 6214 9b3d 09af 4abd
000002b0: 9505 743e a217 26bd 8ff5 323e 39aa 61be
000002c0: ca4e c63d 4892 dcbb ed42 f43d 0d34 253e
000002d0: 59bf 80be 3b13 18be fd44 ef3d 851d 273e
000002e0: a7dd 02be d58c 00be ea59 13be bd24 3b3e
000002f0: b316 4a3e 0b88 b63d c82e 30bd 5bd9 acbd
00000300: 87c6 c4bc deb5 ccbd c767 2d3e 1a62 a0bd
00000310: 0085 ebbc 5b94 9b3e e797 c13d f9a2 b43d
00000320: 3f27 d7bd fae6 88bc 24d1 333e 399e d5be
00000330: 8498 4cbc 5f42 0abe 0fa1 023e a322 66bd
00000340: 1f47 04be 5651 73bd 1b2b a7bb d6db dcbc
00000350: e552 363e 1408 463e 528c 15bd b518 5fbe
00000360: 7e20 9e3d 24e9 a43e 7f0e f63c c285 e038
00000370: 082c 713d 0861 ebbd 7648 8ebd 6985 25bd
00000380: 4b8c 25be 3cf7 f4bd 19ae b0bc 149a 95bd
00000390: ee77 873c 8f26 9cbc 3c64 04be 093d 203d
000003a0: 51ae 2f3e b8ff 363e 912b 42be 1ae4 c2bc
000003b0: 1439 96bd 796a e03d 0cf8 e3bd c83a 55be
000003c0: 03d6 73be a393 b2be 7c09 b3bd 4ae3 423c
000003d0: 6076 953d 6a0e ddbd b8f6 bfbd 3726 093e
000003e0: 3122 a13d 34ff 05bd 2d1e 513d 97c1 8e3e
000003f0: ae4c d6bc 0e16 423e 9a8b 8d3d 1aa1 a6bd

model.0.bias f4 [128]
0.0003071235 -0.0019494782 0.00067557814 -0.0011843098 -0.0004926225 -0.00083721057 0.00033220727 0.00030742242
0.00019352206 0.00067844935 0.0009676197 -0.0011204598 0.0009544615 -0.00039225497 0.0014750218 0.0009338897
0.00018403579 -0.0007929228 0.002029188 0.00039833575 -5.0482347e-05 -9.152715e-05 -0.00079822954 0.000112943315
0.00048251057 -0.0006830269 -0.00030796224 -0.003268277 -0.001239185 0.0009223339 -0.00067257206 -0.00044407824
-0.0017219395 0.0005454414 2.3542289e-06 0.00097561924 0.00064323563 -0.00056917075 0.0019990914 -0.0026050848
0.000103318365 -0.00023657041 -1.5495221e-05 -0.0010039146 0.0018767067 0.0023856373 0.0021253868 0.0005031084
-0.0016130755 -0.00018439797 -0.00039197167 3.3314238e-05 -0.0005309964 0.0015063969 0.0003378007 0.0009882046
0.000112950554 -0.00048404277 -0.00043232157 0.0001764568 -0.0004778781 -0.00066672516 0.00076758786 3.0986303e-06
-0.00017275814 0.00024053482 -0.00019394225 -0.0007006112 -0.0014132874 -0.0008033955 -0.0010429438 0.0002244048
-0.00062656373 -0.00042025463 0.000599501 -0.00065009616 -0.00027491985 -0.0013403705 0.0004947115 0.00047119797
0.0008249789 -0.0009464839 0.00070213416 0.0010704279 -0.00037451054 -0.00019349346 8.364243e-05 0.0020118281
-0.00094327034 -6.18035e-05 6.6566485e-05 -4.575197e-05 -0.001725516 -0.00015329782 0.0004980935 -0.0011782177
-0.0013122519 -0.0022189848 0.0006287119 -0.0004048575 0.00089438894 -0.0018880164 0.0011276237 -0.0015069492
-0.0016750366 0.0013769931 0.0032920488 0.00040663252 -0.0008997818 0.0030356664 -0.00058156415 0.0003374378
-0.0020477404 0.0007540013 0.0021086328 -0.00042339362 -0.0019078713 -8.402986e-05 0.000115489034 -0.0002774304
0.000414596 -0.0009475004 -0.0005343871 -8.230214e-06 2.8053859e-05 0.0005368314 0.00043112328 0.00039490318
00000000: 6b05 a139 a285 ffba 4819 313a d83a 9bba
00000010: 5623 01ba 4078 5bba 1b2c ae39 8a2d a139
00000020: 2fec 4a39 f7d9 313a dca7 7d3a 64dc 92ba
00000030: d434 7a3a 92a7 cdb9 8555 c13a 47d0 743a
00000040: bbf9 4039 26dc 4fba 20fc 043b b8d7 d039
00000050: 02bd 53b8 44f2 bfb8 4740 51ba fbdb ec38
00000060: 79f9 fc39 290d 33ba fe75 a1b9 9730 56bb
00000070: 266c a2ba c8c8 713a 8c4f 30ba 2cd3 e8b9
00000080: b4b2 e1ba f4fb 0e3a 58fd 1d36 b3c0 7f3a
00000090: d09e 283a 6734 15ba 3003 033b 12ba 2abb
000000a0: a0ac d838 e30f 78b9 bcfb 81b7 c995 83ba
000000b0: d4fb f53a 5a58 1c3b 134a 0b3b 08e3 033a
000000c0: d56d d3ba f45a 41b9 8c81 cdb9 e4ba 0b38
000000d0: 9132 0bba 4b72 c53a d81a b139 a586 813a
000000e0: dedf ec38 1fc7 fdb9 38a9 e2b9 4307 3939
000000f0: b68b fab9 2bc7 2eba f337 493a 10f2 4f36
00000100: 6926 35b9 1338 7c39 fa5c 4bb9 39a9 37ba
00000110: 0e3e b9ba f69a 52ba 63b3 88ba 344e 6b39
00000120: fb3f 24ba 9f55 dcb9 d527 1d3a 376b 2aba
00000130: 1e23 90b9 5faf afba 87af 013a 1f0b f739
00000140: 6643 583a 761d 78ba 6d0f 383a 9a4d 8c3a
00000150: f459 c4b9 81e4 4ab9 3069 af38 e0d8 033b
00000160: cd45 77ba 809c 81b8 9c99 8b38 cee5 3fb8
00000170: b62a e2ba 92be 20b9 7d92 023a 6d6e 9aba
00000180: deff abba 636c 11bb 24d0 243a 0e43 d4b9
00000190: 6d75 6a3a 5177 f7ba c6cc 933a d384 c5ba
000001a0: e78c dbba 397c b43a 6abf 573b 4b31 d539
000001b0: 56df 6bba 08f2 463b 1c74 18ba 23ea b039
000001c0: 6233 06bb 2ca8 453a fd30 0a3b eefa ddb9
000001d0: 8a11 faba 3039 b0b8 b432 f238 1474 91b9
000001e0: 225e d939 ad61 78ba 1c16 0cba 8014 0ab7
000001f0: 3455 eb37 25ba 0c3a 6308 e239 020b cf39

model.1.weight f4 [128]
1.031137 0.91181296 0.65156245 1.0470376 0.8410228 1.0454241 0.82501453 0.93106997
0.67466503 1.0234462 1.0373683 0.7447086 0.8329061 1.0793098 1.1258309 0.8737615
1.1409324 1.0125258 1.0493057 1.0817158 1.0836025 1.0136045 1.0117353 0.7252406
1.2122904 1.0071414 0.7272541 1.0473989 1.0264846 1.2036799 0.86389744 0.8307823
1.053298 0.65808624 0.8974864 0.9860448 1.0353222 0.77242893 1.0576185 0.9875638
0.65818566 1.0223237 0.94850576 1.11478 1.107546 0.99680346 0.58508056 0.6334177
1.208149 0.9129482 0.84774435 0.98889476 0.59086174 0.77356315 0.82464164 1.3503004
0.6702229 0.89601713 0.9485743 1.0967666 0.92330575 0.78040504 0.81372297 0.6521076
0.72570133 1.0713905 1.0206689 1.026162 1.0718141 0.9391022 0.8813869 1.0152858
1.0439341 0.8824274 0.89417464 0.86751145 1.0295868 0.9881341 1.3290616 0.8488272
0.9369939 1.0020648 0.6981634 0.96684855 0.79963124 1.0873958 0.6082209 0.93105066
1.0235307 0.7734286 0.71395904 0.994723 1.0066696 1.0589528 0.8854733 0.8631402
1.043912 1.2815559 0.7943365 0.98849225 1.2313159 1.1191195 0.94450533 1.0798401
1.0172839 0.6771624 0.7726056 0.9510896 0.7225968 0.89350975 0.60261405 0.8276029
0.94596225 0.7910343 0.96007556 0.9401163 0.9516117 0.8239591 0.78717625 1.1092231
0.8516792 0.9653032 1.0007012 0.86608696 1.0307131 1.1003228 0.95946103 0.9886812
00000000: 4cfc 833f 936c 693f cccc 263f 5405 863f
00000010: 454d 573f 75d0 853f 2734 533f 9a5a 6e3f
00000020: d9b6 2c3f 4900 833f 7cc8 843f 39a5 3e3f
00000030: 5639 553f d326 8a3f 3a1b 903f d5ae 5f3f
00000040: 130a 923f 729a 813f a64f 863f aa75 8a3f
00000050: 7db3 8a3f cbbd 813f 8b80 813f 5ea9 393f
00000060: 552c 9b3f 02ea 803f 532d 3a3f 2b11 863f
00000070: d963 833f 2f12 9a3f 6228 5d3f 26ae 543f
00000080: 78d2 863f 5778 283f abc1 653f 6f6d 7c3f
00000090: 7085 843f e7bd 453f 0b60 873f fbd0 7c3f
000000a0: db7e 283f 81db 823f 46d1 723f 1cb1 8e3f
000000b0: 11c4 8d3f 832e 7f3f d7c7 153f aa27 223f
000000c0: a0a4 9a3f f9b6 693f c605 593f 3528 7d3f
000000d0: b742 173f 3c08 463f b71b 533f a5d6 ac3f
000000e0: ba93 2b3f 6161 653f c4d5 723f d962 8c3f
000000f0: c45d 6c3f a0c8 473f 2650 503f 86f0 263f
00000100: 90c7 393f 5323 893f 47a5 823f 4759 833f
00000110: 3431 893f 0069 703f 92a2 613f e3f4 813f
00000120: a29f 853f c3e6 613f a1e8 643f 3b15 5e3f
00000130: 80c9 833f 5bf6 7c3f b11e aa3f bd4c 593f
00000140: d5de 6f3f a943 803f d6ba 323f 6383 773f
00000150: a2b4 4c3f c92f 8b3f 5db4 1b3f 5659 6e3f
00000160: 0e03 833f 6bff 453f 05c6 363f 2ba6 7e3f
00000170: 8dda 803f c48b 873f 61ae 623f c2f6 5c3f
00000180: e99e 853f 060a a43f a359 4b3f d40d 7d3f
00000190: c29b 9d3f 4f3f 8f3f 1acb 713f 3338 8a3f
000001a0: 5c36 823f 845a 2d3f 7bc9 453f 9c7a 733f
000001b0: 1bfc 383f 0ebd 643f ea44 1a3f c9dd 533f
000001c0: 952a 723f 3981 4a3f 83c7 753f 76ab 703f
000001d0: d39c 733f fcee 523f 6284 493f 06fb 8d3f
000001e0: a607 5a3f 1c1e 773f fa16 803f e0b7 5d3f
000001f0: 68ee 833f 61d7 8c3f 3d9f 753f 361a 7d3f

model.1.bias f4 [128]
-0.3540406 -0.23986156 -0.511633 -0.6081763 -0.20738618 -0.21313897 -0.19293876 -0.4147142
-0.040519267 -0.59802735 -0.47933722 -0.23434275 -0.8216639 -0.5908177 -0.16071892 -0.36507228
-0.38890725 -0.34192574 -0.41882667 -0.46427494 -0.32915133 -0.43700457 -0.50761056 -0.42778036
-0.049515296 -0.3984701 0.022820914 -0.3824513 -0.31201437 -0.07987405 -0.17681949 -0.27981612
-0.23184894 -0.56780154 -0.43967634 -0.07627658 -0.1076983 -0.49693677 -0.3300816 -0.39854154
-0.46241206 -0.30029556 -0.18979399 -0.31358328 -0.28182033 -0.18520942 -0.34441438 -0.36893255
-0.32767442 -0.3678657 -0.47890285 -0.20952971 -0.014486966 -0.9063488 -0.34219968 -0.12259387
-0.48067394 -0.1667618 -0.44865897 -0.21891665 -0.071782336 -0.3415441 -0.19130361 -0.37424928
-0.51022017 -0.39399916 -0.361131 -0.42345098 -0.40291512 -0.547555 -0.41381708 -0.2881764
-0.470058 -0.29959956 -0.1650115 -0.120954625 -0.3493375 -0.5433571 -0.08852679 -0.44685552
-0.27044517 -0.30308127 -0.5095511 -0.5660417 -0.5425145 -0.25436273 -0.4476952 -0.24917369
-0.3758913 -0.2728827 -0.55186105 -0.25760904 -0.17386518 -0.05568436 -0.30785573 -0.4458918
-0.13088393 -0.31187338 -0.32903543 -0.39310881 -0.22478034 -0.004142449 -0.19335632 -0.010347374
-0.4246919 -0.533486 -0.6126469 -0.32674137 -0.47593397 -0.3524359 -0.018663641 -0.2769767
-0.43344715 -0.43143684 -0.38475528 -0.47562808 -0.60031295 -0.35296586 -0.38616228 -0.35694167
-0.37382466 -0.21166448 -0.50911134 -0.29959646 -0.3471103 -0.56113535 -0.22994164 -0.51520324
00000000: cf44 b5be 459e 75be 61fa 02bf 71b1 1bbf
00000010: 0b5d 54be 1a41 5abe bd91 45be 6b55 d4be
00000020: 88f7 25bd 5218 19bf b06b f5be 8cf7 6fbe
00000030: 9158 52bf d43f 17bf 8093 24be c1ea babe
00000040: da1e c7be e410 afbe 7370 d6be 72b5 edbe
00000050: 8686 a8be 10bf dfbe c4f2 01bf 0706 dbbe
00000060: 8dd0 4abd 4604 ccbe edf2 ba3c a8d0 c3be
00000070: 59c0 9fbe 0295 a3bd 2b10 35be 0f44 8fbe
00000080: cf69 6dbe 715b 11bf 421d e1be e536 9cbd
00000090: ed90 dcbd 7f6e febe 7500 a9be a30d ccbe
000000a0: 46c1 ecbe 57c0 99be 5b59 42be fd8d a0be
000000b0: c14a 90be 8aa7 3dbe 1557 b0be bae4 bcbe
000000c0: f1c4 a7be e558 bcbe c132 f5be f58e 56be
000000d0: bd5a 6dbc 7a06 68bf cc34 afbe 7f12 fbbd
000000e0: e51a f6be 9bc3 2abe a1b6 e5be b02b 60be
000000f0: 9e02 93bd dede aebe 18e5 43be 9a9d bfbe
00000100: ca9d 02bf 42ba c9be 2ae6 b8be 91ce d8be
00000110: e44a cebe 912c 0cbf d5df d3be db8b 93be
00000120: 71ab f0be 1d65 99be c6f8 28be 0fb7 f7bd
00000130: 5ddc b2be 7319 0bbf 894d b5bd 3fca e4be
00000140: ca77 8abe 782d 9bbe f171 02bf 1ce8 10bf
00000150: 3be2 0abf d53b 82be 4e38 e5be 6327 7fbe
00000160: d374 c0be 48b7 8bbe c446 0dbf 55e5 83be
00000170: b709 32be 4915 64bd 449f 9dbe ee4b e4be
00000180: 7006 06be dead 9fbe 5577 a8be 8f45 c9be
00000190: d12c 66be 61bd 87bb 33ff 45be 0888 29bc
000001a0: 3771 d9be 8a92 08bf 6dd6 1cbf a54a a7be
000001b0: 9ead f3be 7a72 b4be 7ee4 98bc e4cf 8dbe
000001c0: c9ec ddbe 4ae5 dcbe a5fe c4be 8685 f3be
000001d0: 1cae 19bf f1b7 b4be 10b7 c5be 0fc1 b6be
000001e0: f265 bfbe 93be 58be 1f55 02bf b564 99be
000001f0: 71b8 b1be 91a6 0fbf d275 6bbe 5ce4 03bf

model.1.running_mean f4 [128]
-0.04083532 -0.039467946 -0.040386453 0.051243845 0.10711376 0.040683836 0.13690242 0.07376901
0.099750325 0.05026187 0.042848453 0.16565402 -0.030960638 -0.0225177 -0.051138528 0.019205976
-0.017792895 -0.038396824 -0.01829983 0.09683444 -0.14576176 -0.08347352 0.081816845 -0.08449954
0.026492447 -0.09038021 -0.043056183 -0.0042969547 0.063058496 0.012220466 0.090160586 -0.0007076822
-0.050213944 -0.114092626 0.2084785 0.020285062 -0.036330037 -0.080401115 0.1835088 -0.0072653634
-0.04689327 0.015017904 0.0016154703 -0.04723883 0.014445987 0.015873378 -0.056602664 -0.08239141
-0.08811703 0.010167705 -0.15752423 0.029832315 0.038177308 0.15919977 0.12918678 -0.0028826257
-0.024500944 -0.009415224 -0.081579655 -0.023326697 0.01689167 -0.06901675 -0.06520465 0.1736365
-0.033174716 -0.01609739 0.017045634 0.061921082 -0.089159444 0.042530738 0.07739631 0.0094493665
-0.0012105992 0.027841827 0.061360687 0.15622002 0.15391248 0.083622836 -0.08818129 0.03693896
0.067292385 0.11125651 -0.033424348 0.055662766 -0.12317317 0.004578097 -0.031224012 0.0011336785
-0.03815441 0.004262032 -0.07580916 -0.027153999 -0.020965047 0.08213677 0.061430804 -0.0823851
-0.04840242 0.05224599 0.14599398 0.0719202 -0.073994964 0.03419251 0.036184035 -0.08959477
-0.051796112 -0.040477645 0.118625246 -0.02855767 -0.006595929 0.024852743 0.049891993 0.1294045
0.030631188 -0.04373214 0.05690877 0.080655515 -0.11667234 -0.051045038 -0.13358022 0.0881444
0.10643346 0.0519146 0.052022737 0.10739023 -0.03444146 0.018261205 -0.046548404 0.041303307
00000000: f042 27bd 24a9 21bd 446c 25bd 11e5 513d
00000010: 765e db3d 18a4 263d 2630 0c3e 3514 973d
00000020: e649 cc3d 64df 4d3d dc81 2f3d 35a1 293e
00000030: 2aa1 fdbc 0a77 b8bc a276 51bd da55 9d3c
00000040: 68c2 91bc fd45 1dbd 86e9 95bc 2351 c63d
00000050: 9242 15be 2af4 aabd 978f a73d 180e adbd
00000060: b006 d93c 4219 b9bd ae5b 30bd 78cd 8cbb
00000070: d024 813d 5938 483c 1da6 b83d c083 39ba
00000080: 23ad 4dbd 65a9 e9bd 637b 553e dc2c a63c
00000090: cece 14bd 57a9 a4bd bbe9 3b3e 4912 eebb
000000a0: 2813 40bd a80d 763c 30be d33a 817d 41bd
000000b0: dcae 6c3c e308 823c 32d8 67bd d4bc a8bd
000000c0: b476 b4bd 7296 263c 084e 21be e662 f43c
000000d0: cf5f 1c3d 4405 233e 8a49 043e 6fea 3cbb
000000e0: 34b6 c8bc 5042 1abc 3c13 a7bd a117 bfbc
000000f0: 6660 8a3c a758 8dbd 048a 85bd c4cd 313e
00000100: 36e2 07bd acde 83bc 49a3 8b3c f6a0 7d3d
00000110: 3a99 b6bd b634 2e3d f581 9e3d 84d1 1a3c
00000120: f8ac 9eba 8b14 e43c 5855 7b3d 24f8 1f3e
00000130: 3c9b 1d3e 7342 ab3d 6498 b4bd 4f4d 173d
00000140: 97d0 893d 74da e33d f8e7 08bd a4fe 633d
00000150: 3742 fcbd dc03 963b 80c9 ffbc f097 943a
00000160: cc47 1cbd 84a8 8b3b d541 9bbd 1072 debc
00000170: e4be abbc 5337 a83d de9e 7b3d 85b9 a8bd
00000180: 9e41 46bd e4ff 553d 727f 153e e64a 933d
00000190: ac8a 97bd 720d 0c3d b635 143d 767d b7bd
000001a0: 2928 54bd e3cb 25bd cbf1 f23d c6f1 e9bc
000001b0: aa22 d8bb fb97 cb3c 8c5b 4c3d 9d82 043e
000001c0: 42ee fa3c 7920 33bd 2c19 693d b82e a53d
000001d0: e8f1 eebd 9a14 51bd 41c9 08be 0d85 b43d
000001e0: c9f9 d93d 67a4 543d cb15 553d 69ef db3d
000001f0: 7d12 0dbd 8698 953c 8aa9 3ebd a82d 293d

model.1.running_var f4 [128]
3.7402725 3.740615 2.3695865 6.0483136 3.4258773 3.1979654 6.524338 4.299469
2.129696 3.218019 3.6484 16.765764 4.846339 4.149252 4.4445195 2.290821
4.527169 2.8203897 6.5049615 3.6230087 3.3197036 5.738664 5.544737 1.9449438
5.671963 8.79414 4.718489 1.9674416 3.2710965 3.5783782 6.2169223 3.0066857
2.099302 1.6701263 11.393812 6.130804 5.705232 5.7456326 11.345536 3.7484088
4.3769226 5.5327725 4.3121986 2.7059212 2.6748557 2.359068 8.490726 3.1346974
5.6078806 2.7563646 6.46759 3.9027789 4.1860337 8.393763 4.958583 2.6309276
2.6004336 4.363933 4.1972013 4.927477 3.9340298 5.4036217 5.4778695 6.2236166
2.3614023 2.4766588 3.336823 3.5038946 5.798191 3.8242948 2.894374 6.536014
3.2286057 2.7411516 2.6122265 4.9143257 3.6617818 4.5428467 3.2963274 5.333478
3.5123506 3.5916626 2.430707 8.5676775 4.760485 3.6506915 4.7668805 3.1183038
2.4359415 2.910931 4.0898156 6.0593047 3.7032387 4.311629 2.6268291 2.7004266
3.4599185 1.9818071 3.5587769 4.9667597 5.058856 5.970237 3.2715607 7.5445395
6.5769863 2.444045 2.0619736 2.05653 2.838133 2.7346904 2.540542 4.3430905
4.518657 2.678167 6.4205346 6.1073217 4.5764356 2.7140884 3.0275972 4.9268465
4.514213 4.0475726 3.165747 3.3656728 4.222172 3.637626 5.1643066 5.3538313
00000000: a060 6f40 3c66 6f40 4ea7 1740 c98b c140
00000010: 9341 5b40 77ab 4c40 60c7 d040 4095 8940
00000020: f04c 0840 06f4 4d40 637f 6940 4920 8641
00000030: 3615 9b40 acc6 8440 8139 8e40 d09c 1240
00000040: 92de 9040 4481 3440 a528 d040 60df 6740
00000050: 0676 5440 23a3 b740 7c6e b140 ebf3 f83f
00000060: b980 b540 ccb4 0c41 ddfd 9640 20d5 fb3f
00000070: a559 5140 2604 6540 07f1 c640 8a6d 4040
00000080: f75a 0640 b3c6 d53f 0e4d 3641 8c2f c440
00000090: 4391 b640 39dc b740 5187 3541 eee5 6f40
000000a0: c00f 8c40 790c b140 88fd 8940 d02d 2d40
000000b0: d630 2b40 f8fa 1640 04da 0741 e29e 4840
000000c0: c273 b340 4768 3040 7ff6 ce40 21c7 7940
000000d0: fdf3 8540 da4c 0641 b6ac 9e40 1e61 2840
000000e0: 816d 2640 57a5 8b40 794f 8640 e4ad 9d40
000000f0: 25c7 7b40 78ea ac40 b54a af40 de27 c740
00000100: 3721 1740 9481 1e40 828e 5540 cf3f 6040
00000110: c88a b940 3fc1 7440 6c3d 3940 0727 d140
00000120: 7aa1 4e40 076f 2f40 b82e 2740 2842 9d40
00000130: a25a 6a40 005f 9140 07f7 5240 daab aa40
00000140: 5aca 6040 cddd 6540 b490 1b40 3515 0941
00000150: e555 9840 eea4 6940 498a 9840 4a92 4740
00000160: 77e6 1b40 b24c 3a40 c5df 8240 d3e5 c140
00000170: dd01 6d40 ddf8 8940 f81d 2840 cad3 2c40
00000180: 4e6f 5d40 dbab fd3f 00c3 6340 b2ef 9e40
00000190: 26e2 a140 2e0c bf40 4061 5140 de6c f140
000001a0: ac76 d240 3c6b 1c40 60f7 0340 309e 0340
000001b0: f9a3 3540 2b05 2f40 3d98 2240 99fa 8a40
000001c0: d798 9040 1767 2b40 0575 cd40 2e6f c340
000001d0: 2972 9240 a0b3 2d40 27c4 4140 baa8 9d40
000001e0: 6f74 9040 b785 8140 999b 4a40 2f67 5740
000001f0: 081c 8740 ddce 6840 0042 a540 9652 ab40

model.4.weight f4 [64, 128]
0.23917402 0.11357378 0.07815436 -0.103784196 -0.077766374 0.027599268 -0.5493507 0.017124902
-0.015227299 0.096164025 -0.0037961176 -0.08220298 0.061152544 0.074426554 0.038570467 0.015305159
-0.07634092 0.016566537 0.0855404 0.117283255 -0.012158295 -0.03126044 0.03663703 0.117474355
-0.0074709067 0.020977426 0.023591261 -0.5771152 -0.4381618 0.12427449 -0.3243664 -0.14163697
-0.04482056 0.113067426 -0.3189568 0.1071697 0.06114588 0.024541512 -0.020496968 0.04967872
0.07945861 0.033059053 0.058841184 0.06351445 0.06460644 0.057535604 0.04422697 0.058863483
0.0045093745 0.042440183 0.1724271 -0.04807058 0.061275262 -0.037257485 -0.0047259033 0.093468405
0.060516078 0.044851147 -0.012619341 0.023333253 -0.07837606 0.0154121565 0.09815004 -0.2275439
0.0704732 0.03672945 0.06646154 0.10586918 -0.03264813 -0.26442093 -0.5357806 0.023999676
0.122950405 -0.08421813 -0.06383852 -0.47993878 0.0989427 -0.05401043 -0.07918001 0.0009718381
-0.12722212 0.048802145 0.17811409 -0.0013993387 0.12587555 0.091447525 0.010262661 0.029157974
0.24530128 0.10669316 0.08018976 0.12148412 0.050845083 0.14918636 0.06681994 0.022877334
0.0023534074 -0.011394704 -0.19475491 -0.41680828 0.069578014 0.1214772 -0.04961659 0.021733614
0.14680032 0.011674132 0.046243098 -0.15257645 0.15779334 -0.34838507 -0.04844428 -0.6425609
0.016999736 0.23936221 -0.00721384 0.011958248 -0.025246626 0.027827311 0.12576044 0.12182348
0.03891957 -0.06865159 -0.052071504 0.043464463 0.0077524562 0.12233392 -0.0071521606 0.06919958
0.10031108 0.054912522 0.016058272 0.049665436 -0.014526242 -0.14021339 0.11706677 -0.16743349
-0.08577507 -0.02442937 0.06617172 0.08513417 0.018180111 0.040187426 0.18672962 -0.13590269
0.03726687 -0.35951948 -0.057668902 -0.2493683 -0.0086762095 -0.009069353 0.01702612 0.082957715
0.025249297 -0.05889806 -0.18317264 0.1655991 0.11777873 0.038134437 0.093416564 0.12349753
0.22558832 0.10928162 0.03366303 0.15639403 0.14117223 -0.12429325 0.08219914 0.06465458
0.025218338 -0.01747018 0.044734836 0.04044644 0.088006884 0.08320981 0.014795056 0.15202516
0.10903845 0.1391937 0.18798108 0.047073532 -0.07674124 -0.0160261 -0.06346817 -0.05451089
-0.27222905 0.06196294 -0.053618785 0.10489531 0.09122154 0.037154175 0.16271088 0.093545355
0.19156702 -0.12132702 0.046857823 -0.09640829 0.03777475 0.07192941 0.0936678 0.13973702
0.10616149 0.051673975 -0.35591432 -0.041035686 0.011863389 -0.0016155555 0.09100012 -0.24791567
-0.0057998947 0.0037261818 0.006868591 -0.012790182 -0.011095268 0.050759807 0.19562611 -0.5998365
0.09719158 0.2052279 -0.23231205 -0.039422758 0.050098762 0.06878931 0.01821254 0.10078442
0.03910511 0.30649495 0.19969466 0.073348686 0.30036986 0.0072509046 -0.019561071 0.21864846
-0.011944167 0.044626568 -0.022580046 0.2559955 0.13943614 0.05052504 -0.4761999 0.253574
-0.06078924 0.15429187 0.020723643 -0.07338931 0.06767006 0.1765758 -0.17374349 0.057394974
-0.08273148 0.09666343 0.0938758 -0.035046533 0.055323567 0.14992845 0.11801933 -0.08311843
00000000: 09ea 743e 5f99 e83d 650f a03d cf8c d4bd
00000010: fa43 9fbd dc17 e23c 3fa2 0cbf 8649 8c3c
00000020: ec7b 79bc a5f1 c43d 49c8 78bb 095a a8bd
00000030: 177b 7a3d f36c 983d 11fc 1d3d 7dc2 7a3c
00000040: a158 9cbd 8cb6 873c ce2f af3d 3432 f03d
00000050: 9633 47bc f20a 00bd b610 163d 6596 f03d
00000060: 82ce f4bb dad8 ab3c 7642 c13c d2bd 13bf
00000070: be56 e0be a083 fe3d 5a13 a6be 4809 11be
00000080: c395 37bd e58f e73d 4e4e a3be ca7b db3d
00000090: 1a74 7a3d 480b c93c 42e9 a7bc ea7b 4b3d
000000a0: 32bb a23d ee68 073d 7403 713d dd13 823d
000000b0: 6250 843d 74aa 6b3d 5727 353d d61a 713d
000000c0: 60c3 933b c2d5 2d3d bb90 303e a8e5 44bd
000000d0: c5fb 7a3d 4e9b 18bd c0db 9abb 5d6c bf3d
000000e0: b5df 773d d6b5 373d 5ac1 4ebc 6125 bf3c
000000f0: a183 a0bd 4583 7c3c e302 c93d 4501 69be
00000100: 4154 903d 9f71 163d fd1c 883d f1d1 d83d
00000110: 0cba 05bd 2e62 87be eb28 09bf f89a c43c
00000120: 6ccd fb3d 8e7a acbd c5bd 82bd 89ba f5be
00000130: 78a2 ca3d 0a3a 5dbd 2129 a2bd f3c2 7e3a
00000140: 8446 02be c2e4 473d 8a63 363e 046a b7ba
00000150: 85e5 003e d748 bb3d b824 283c b4dc ee3c
00000160: 4230 7b3e f281 da3d 873a a43d abcc f83d
00000170: ef42 503d 4fc4 183e e5d8 883d 3f69 bb3c
00000180: a03b 1a3b dab0 3abc d56d 47be e567 d5be
00000190: eb7e 8e3d 0ac9 f83d c43a 4bbd b10a b23c
000001a0: d352 163e dc44 3f3c 6769 3d3d 003d 1cbe
000001b0: 9494 213e 875f b2be 826d 46bd df7e 24bf
000001c0: 0843 8b3c 5e1b 753e 1362 ecbb 87ec 433c
000001d0: 03d2 cebc 1af6 e33c 58c7 003e 977e f93d
000001e0: 216a 1f3d 3499 8cbd ee48 55bd cb07 323d
000001f0: 5108 fe3b 358a fa3d ac5c eabb 82b8 8d3d
00000200: e56f cd3d f4eb 603d a38c 833c fc6d 4b3d
00000210: 7aff 6dbc 1994 0fbe b4c0 ef3d af73 2bbe
00000220: d7aa afbd 1a20 c8bc 0a85 873d d35a ae3d
00000230: 75ee 943c 929b 243d 0d36 3f3e 132a 0bbe
00000240: 25a5 183d f012 b8be 3a36 6cbd 675a 7fbe
00000250: a926 0ebc a097 14bc 5d7a 8b3c bce5 a93d
00000260: 9dd7 ce3c 183f 71bd 9c91 3bbe cf92 293e
00000270: fa35 f13d db32 1c3d 2f51 bf3d 46ec fc3d
00000280: a000 673e 0bcf df3d 3fe2 093d c225 203e
00000290: 748f 103e 768d febd 0658 a83d 9f69 843d
000002a0: b096 ce3c 9f1d 8fbc e03b 373d 2bab 253d
000002b0: f43c b43d e869 aa3d f666 723c 7cac 1b3e
000002c0: 8d4f df3d cb88 0e3e 1d7e 403e 2dd0 403d
000002d0: 832a 9dbd 2b49 83bc 9afb 81bd d046 5fbd
000002e0: 9b61 8bbe dacc 7d3d 5f9f 5bbd 5ad3 d63d
000002f0: 5cd2 ba3d fa2e 183d ae9d 263e b594 bf3d
00000300: 252a 443e 4d7a f8bd fded 3f3d b671 c5bd
00000310: b2b9 1a3d ba4f 933d e7d4 bf3d 3917 0f3e
00000320: 326b d93d 17a8 533d 673a b6be 0915 28bd
00000330: a95e 423c 0cc1 d3ba 455e ba3d 9bdd 7dbe
00000340: 0b0d bebb f532 743b eb11 e13b e98d 51bc
00000350: edc8 35bc 84e9 4f3d 3652 483e e38e 19bf
00000360: 610c c73d 4327 523e 36e3 6dbe c279 21bd
00000370: 5c34 4d3d 69e1 8c3d 7732 953c 1068 ce3d
00000380: ae2c 203d e8ec 9c3e c27c 4c3e d637 963d
00000390: 14ca 993e ff98 ed3b 8a3e a0bc 62e5 5f3e
000003a0: 78b1 43bc 59ca 363d caf9 b8bc d811 833e
000003b0: 59c8 0e3e 58f3 4e3d 79d0 f3be 74d4 813e
000003c0: 23fe 78bd b0fe 1d3e a1c4 a93c 224d 96bd
000003d0: 9a96 8a3d 49d0 343e d0e9 31be fe16 6b3d
000003e0: 1f6f a9bd 7af7 c53d f541 c03d f48c 0fbd
000003f0: f79a 623d d886 193e 1eb4 f13d ff39 aabd

model.4.bias f4 [64]
-0.0030818712 0.0020878995 0.00019363631 -0.0014212513 0.00085698895 -0.003709407 0.00075132 0.00044888654
-0.004120124 -0.0013224594 -0.0035188496 0.00011016143 1.1563039e-05 -0.0004581241 -0.0019759948 -0.00086940965
-0.0021832592 -0.0023811045 0.0003240186 9.758399e-05 -0.0008074511 -0.0008128015 -0.0017663568 -0.0026732949
-0.0003176729 9.109278e-05 -0.00015239236 -0.0016582538 -9.152698e-05 0.002550731 -0.00045253808 0.0033209464
0.00056815165 0.0015017008 -0.0054150396 -0.00024157198 0.0021401045 -0.00083547184 0.0046184394 0.0044231587
0.00054966804 -0.0014853273 -0.0005754389 -0.0026495536 -0.0010767146 -0.00017930576 -0.00038634505 0.00081503665
-0.0001525102 -0.0001737228 0.0030031963 -0.0017410865 0.0022424872 0.0013743227 -0.0004372094 0.0031928045
0.00026358344 -0.0012514701 -0.0001488282 0.0033899993 0.0014926969 -0.0018711529 0.00025681447 -0.0027023442
00000000: 38f9 49bb 24d5 083b da0a 4b39 4849 baba
00000010: 8ea7 603a 8619 73bb 3bf4 443a 8858 eb39
00000020: 1b02 87bb 6056 adba 809c 66bb 7806 e738
00000030: e0fe 4137 6030 f0b9 b17f 01bb 18e9 63ba
00000040: 0315 0fbb 4e0c 1cbb 0ae1 a939 01a6 cc38
00000050: 20ab 53ba 2f12 55ba 1985 e7ba 7232 2fbb
00000060: 568d a6b9 1009 bf38 83cb 1fb9 c459 d9ba
00000070: 2cf2 bfb8 2a2a 273b a242 edb9 3ca4 593b
00000080: 03f0 143a b8d4 c43a a570 b1bb 7c4e 7db9
00000090: ff40 0c3b 9103 5bba 4756 973b 25f0 903b
000000a0: 9917 103a 50af c2ba 0dd9 16ba 22a4 2dbb
000000b0: 8c20 8dba 0604 3cb9 5b8e cab9 2fa8 553a
000000c0: 25eb 1fb9 5c29 36b9 46d1 443b 2b35 e4ba
000000d0: b1f6 123b 9e22 b43a 4139 e5b9 5f3e 513b
000000e0: 9231 8a39 5e08 a4ba c40e 1cb9 c02a 5e3b
000000f0: 99a6 c33a 7941 f5ba 0ea5 8639 d019 31bb

model.5.weight f4 [64]
0.8871036 1.1907921 1.2478609 0.9820992 1.3016105 1.0772798 0.7672324 0.7307966
1.0060112 1.1186857 0.8124899 1.0153403 0.67692786 0.9778537 1.1498713 1.1480373
0.9818575 1.1116948 1.1243339 0.775894 1.0436759 0.80156815 1.098014 0.68332696
1.111113 0.9326447 1.136466 0.9608952 0.8418081 0.7821595 1.1531568 0.9915881
1.0718974 0.7609176 0.9449002 0.80129516 0.8890805 0.732856 0.94127125 1.0587761
0.69546396 0.709421 0.8387111 1.0982716 0.759366 1.0054202 1.0154468 1.1788126
0.66824317 1.3109379 0.9731171 0.718708 0.7838864 0.6675904 0.88146895 1.0564779
0.78014755 0.8922759 0.9440923 1.1960554 1.0569024 0.95453227 0.9907311 1.2550143
00000000: 3919 633f e06b 983f e8b9 9f3f da6a 7b3f
00000010: 2c9b a63f 4ee4 893f 5869 443f 7c15 3b3f
00000020: fac4 803f 1831 8f3f 57ff 4f3f acf6 813f
00000030: 254b 2d3f 9f54 7a3f fc2e 933f e3f2 923f
00000040: 035b 7b3f 044c 8e3f 2cea 8f3f fda0 463f
00000050: 2c97 853f 9233 4d3f b98b 8c3f 84ee 2e3f
00000060: f338 8e3f cec1 6e3f b877 913f 3afd 753f
00000070: bc80 573f 9b3b 483f a49a 933f b8d8 7d3f
00000080: ef33 893f 7fcb 423f fbe4 713f ae21 4d3f
00000090: c89a 633f 739c 3b3f 27f7 703f fa85 873f
000000a0: ed09 323f 9d9c 353f c5b5 563f 2a94 8c3f
000000b0: cf65 423f 9cb1 803f 29fa 813f 55e3 963f
000000c0: fc11 2b3f d0cc a73f 341e 793f 3ffd 373f
000000d0: c7ac 483f 34e7 2a3f f3a7 613f ab3a 873f
000000e0: c0b7 473f 326c 643f 08b0 713f 5818 993f
000000f0: 9448 873f 3a5c 743f 8ea0 7d3f 4fa4 a03f

model.5.bias f4 [64]
1.511212 1.1608967 1.3900032 1.4131037 1.3606793 1.3590419 1.4342464 1.5747868
1.4980664 1.3804989 1.5556399 1.4504491 1.6237696 1.3769786 1.3207067 1.4170899
1.4274529 1.2868134 1.2830957 1.5043713 1.4313791 1.5766312 1.4812759 1.5044899
1.4226118 1.5059487 1.3266475 1.4087911 1.4689271 1.5112273 1.4164709 1.4998689
1.4181181 1.3628694 1.2914138 1.5322796 1.5291225 1.6080248 1.5257163 1.3193929
1.5951731 1.4317698 1.4986821 1.4467685 1.453095 1.3830822 1.3212843 1.3039527
1.6030825 1.3040788 1.4166688 1.6012071 1.5027803 1.566596 1.3943241 1.3719819
1.5119808 1.4839555 1.4948493 1.2931463 1.4705893 1.4237629 1.4384832 1.2300415
00000000: 656f c13f 4398 943f a0eb b13f 95e0 b43f
00000010: bd2a ae3f 16f5 ad3f 6395 b73f 9d92 c93f
00000020: a4c0 bf3f 30b4 b03f 351f c73f 51a8 b93f
00000030: afd7 cf3f d640 b03f eb0c a93f 3463 b53f
00000040: c7b6 b63f 4db6 a43f 7b3c a43f 3d8f c03f
00000050: 6e37 b73f 0dcf c93f 739a bd3f 2093 c03f
00000060: 2518 b63f edc2 c03f 96cf a93f 4453 b43f
00000070: ce05 bc3f e56f c13f eb4e b53f b4fb bf3f
00000080: e584 b53f 8172 ae3f 0c4d a53f bd21 c43f
00000090: 49ba c33f c2d3 cd3f ac4a c33f dee1 a83f
000000a0: a22e cc3f 3c44 b73f d1d4 bf3f b62f b93f
000000b0: 04ff b93f d608 b13f d81f a93f ece7 a63f
000000c0: cf31 cd3f 0eec a63f 6755 b53f 5bf4 cc3f
000000d0: 1b5b c03f 3886 c83f 3679 b23f 1a9d af3f
000000e0: 9688 c13f 41f2 bd3f 3957 bf3f d185 a53f
000000f0: 453c bc3f dd3d b63f 3820 b83f 0072 9d3f

model.5.running_mean f4 [64]
-0.26884577 0.9196645 -0.9598881 0.4878673 -1.1491972 -0.8337193 -0.81610256 -0.57048625
-1.2530751 -0.6491059 -0.9103717 -0.115943715 -0.9365153 -1.2748237 0.490008 -0.9340364
-0.57066834 -0.54528314 -0.8756124 0.44128406 -0.86359787 -0.80549175 -0.32768494 -0.6807058
-1.1790708 -0.8223582 -0.0036883615 -0.6279337 0.76014555 -0.5322919 -0.68315136 -0.7034154
-1.0783889 -0.84368706 -0.7286633 0.46465635 -0.6619308 -0.21496789 -0.77563214 -0.91651326
-0.86483645 -0.7553488 -0.7112048 -1.2673595 -0.7986357 -0.7473914 -0.6673766 0.39205745
-0.9465047 -1.0027505 -0.6565887 -0.80253947 0.26332575 -0.5580272 -0.80338746 0.24046491
-0.54500115 -0.26182425 -0.71945584 -1.0803964 -1.0076113 -0.16736275 -0.90378946 -1.1456858
00000000: 27a6 89be 226f 6b3f 3abb 75bf bec9 f93e
00000010: e518 93bf a16e 55bf 19ec 50bf 630b 12bf
00000020: c464 a0bf ce2b 26bf 1f0e 69bf e673 edbd
00000030: 77bf 6fbf 6c2d a3bf 54e2 fa3e 021d 6fbf
00000040: 5217 12bf ad97 0bbf 2228 60bf fcef e13e
00000050: c014 5dbf b534 4ebf 52c6 a7be bc42 2ebf
00000060: cbeb 96bf 1186 52bf 70b8 71bb 43c0 20bf
00000070: e698 423f 4844 08bf 02e3 2ebf 0813 34bf
00000080: a608 8abf e0fb 57bf ae89 3abf 70e7 ed3e
00000090: 4c74 29bf 8b20 5cbe d48f 46bf 9da0 6abf
000000a0: ec65 5dbf 8a5e 41bf 8511 36bf d638 a2bf
000000b0: 6473 4cbf 0b55 3fbf 31d9 2abf c1bb c83e
000000c0: 224e 72bf 215a 80bf 3216 28bf 3a73 4dbf
000000d0: a2d2 863e dfda 0ebf cdaa 4dbf 6f3c 763e
000000e0: 3285 0bbf d40d 86be 422e 38bf 6e4a 8abf
000000f0: 68f9 80bf 2461 2bbe bf5e 67bf d5a5 92bf

model.5.running_var f4 [64]
2.341991 2.6158845 3.72749 3.220483 4.453843 4.1788225 2.0990052 4.0503592
3.2862098 2.5953338 2.4265761 2.2111068 2.2297382 3.5506253 2.900045 2.6528144
3.1766424 2.9515476 3.215311 2.1633792 2.6560893 3.1643054 4.152626 2.018805
4.4461355 2.861616 3.8970397 3.3692367 2.6944454 2.279697 3.734801 2.4896173
2.746254 2.6180782 2.267997 2.49629 3.2203317 3.4082983 2.4994137 3.0650883
2.5195925 2.1205723 2.1446173 3.717676 1.8724948 2.9730685 2.4193904 3.8154829
3.1006627 4.010244 2.5225933 2.0185134 1.9408903 3.038988 2.7245827 3.806037
2.3305092 2.4309666 2.0045838 3.8683507 3.9015641 3.466987 2.8834112 3.6153283
00000000: 2ee3 1540 a76a 2740 328f 6e40 651c 4e40
00000010: e285 8e40 eab8 8540 1a56 0640 8b9c 8140
00000020: 4351 5240 f319 2640 064d 1b40 c682 0d40
00000030: 08b4 0e40 723d 6340 569a 3940 b6c7 2940
00000040: 1c4e 4b40 28e6 3c40 a8c7 4d40 ce74 0a40
00000050: 5efd 2940 fb83 4a40 50e2 8440 1a34 0140
00000060: be46 8e40 b724 3740 1969 7940 93a1 5740
00000070: cb71 2c40 8ee6 1140 fb06 6f40 e455 1f40
00000080: a0c2 2f40 988e 2740 dd26 1140 37c3 1f40
00000090: ea19 4e40 8f21 5a40 65f6 1f40 682a 4440
000000a0: 0141 2140 75b7 0740 6941 0940 67ee 6d40
000000b0: e9ad ef3f c146 3e40 4bd7 1a40 df30 7440
000000c0: 4271 4640 eb53 8040 2b72 2140 532f 0140
000000d0: 186f f83f c87e 4240 905f 2e40 1c96 7340
000000e0: 1027 1540 f594 1b40 1a4b 0040 0f93 7740
000000f0: 3ab3 7940 1de3 5d40 cf89 3840 8a61 6740

model.8.weight f4 [1, 64]
0.69047356 0.6873009 0.6630044 0.6385656 0.6671028 0.688078 0.7439514 0.68194956
0.6790575 0.69012976 0.67589647 0.66689986 0.6978034 0.7081947 0.6289018 0.68200314
0.7061004 0.68761474 0.71953565 0.6603997 0.6534894 0.70449215 0.6540914 0.72436947
0.6792442 0.66706294 0.6566828 0.6894342 0.6581671 0.6719485 0.6436222 0.6719353
0.6594589 0.752928 0.7383371 0.65733534 0.6918846 0.67628086 0.6645548 0.73097634
0.6973394 0.7321526 0.67849463 0.6566162 0.75279886 0.6847922 0.7232894 0.6484391
0.70173323 0.6822875 0.7007468 0.7000789 0.6791157 0.688136 0.7036152 0.6308205
0.6746961 0.69245905 0.688741 0.69069856 0.6817327 0.647438 0.6884582 0.7053722
00000000: e0c2 303f f4f2 2f3f a8ba 293f 0979 233f
00000010: 40c7 2a3f e125 303f 9973 3e3f 3f94 2e3f
00000020: b6d6 2d3f 58ac 303f 8d07 2d3f f3b9 2a3f
00000030: 3ea3 323f 3f4c 353f b5ff 203f c297 2e3f
00000040: ffc2 343f 8507 303f 7d33 383f f40f 293f
00000050: 154b 273f 9959 343f 8972 273f 4770 393f
00000060: f3e2 2d3f a3c4 2a3f 5d1c 283f c27e 303f
00000070: a47d 283f d104 2c3f 6dc4 243f f403 2c3f
00000080: 4cd2 283f e4bf 403f a903 3d3f 2147 283f
00000090: 591f 313f be20 2d3f 4320 2a3f 4421 3b3f
000000a0: d684 323f 5a6e 3b3f d3b1 2d3f 0018 283f
000000b0: 6db7 403f 8b4e 2f3f 7e29 393f 1b00 263f
000000c0: caa4 333f 65aa 2e3f 2464 333f 5f38 333f
000000d0: 87da 2d3f ae29 303f 2020 343f 747d 213f
000000e0: e2b8 2c3f ff44 313f 5551 303f 9fd1 303f
000000f0: 0986 2e3f 7fbe 253f cc3e 303f 4693 343f
